…
   "cell_type": "markdown",
   "id": "7ef441cb",
   "metadata": {},
   "source": [
    "### CNN Model êµ¬í˜„"
   ]
  },
  {
   "cell_type": "code",
   "execution_count": 8,
   "id": "2f94d33d",
   "metadata": {},
   "outputs": [
    {
     "name": "stdout",
     "output_type": "stream",
     "text": [
      "Model: \"sequential\"\n",
      "_________________________________________________________________\n",
      "Layer (type)                 Output Shape              Param #   \n",
      "=================================================================\n",
      "conv2d (Conv2D)              (None, 298, 298, 16)      448       \n",
      "_________________________________________________________________\n",
      "max_pooling2d (MaxPooling2D) (None, 149, 149, 16)      0         \n",
      "_________________________________________________________________\n",
      "conv2d_1 (Conv2D)            (None, 147, 147, 32)      4640      \n",
      "_________________________________________________________________\n",
      "max_pooling2d_1 (MaxPooling2 (None, 73, 73, 32)        0         \n",
      "_________________________________________________________________\n",
      "conv2d_2 (Conv2D)            (None, 71, 71, 64)        18496     \n",
      "_________________________________________________________________\n",
      "max_pooling2d_2 (MaxPooling2 (None, 35, 35, 64)        0         \n",
      "_________________________________________________________________\n",
      "conv2d_3 (Conv2D)            (None, 33, 33, 64)        36928     \n",
      "_________________________________________________________________\n",
      "max_pooling2d_3 (MaxPooling2 (None, 16, 16, 64)        0         \n",
      "_________________________________________________________________\n",
      "conv2d_4 (Conv2D)            (None, 14, 14, 64)        36928     \n",
      "_________________________________________________________________\n",
      "max_pooling2d_4 (MaxPooling2 (None, 7, 7, 64)          0         \n",
      "_________________________________________________________________\n",
      "flatten (Flatten)            (None, 3136)              0         \n",
      "_________________________________________________________________\n",
      "dense (Dense)                (None, 512)               1606144   \n",
      "_________________________________________________________________\n",
      "dense_1 (Dense)              (None, 1)                 513       \n",
      "=================================================================\n",
      "Total params: 1,704,097\n",
      "Trainable params: 1,704,097\n",
      "Non-trainable params: 0\n",
      "_________________________________________________________________\n"
     ]
    }
   ],
   "source": [
    "# [Conv - Maxpool]*5 - Flatten - Dense - Dense\n",
    "model = tf.keras.models.Sequential([\n",
…
    "                                      class_mode  = 'binary',\n",
    "                                      target_size = (300, 300))"
   ]
  },
  {
   "cell_type": "code",
   "execution_count": 16,
   "id": "18a19e96",
   "metadata": {},
   "outputs": [
    {
     "name": "stdout",
     "output_type": "stream",
     "text": [
      "Model: \"sequential_1\"\n",
      "_________________________________________________________________\n",
      "Layer (type)                 Output Shape              Param #   \n",
      "=================================================================\n",
      "conv2d_5 (Conv2D)            (None, 298, 298, 16)      448       \n",
      "_________________________________________________________________\n",
      "max_pooling2d_5 (MaxPooling2 (None, 149, 149, 16)      0         \n",
      "_________________________________________________________________\n",
      "conv2d_6 (Conv2D)            (None, 147, 147, 32)      4640      \n",
      "_________________________________________________________________\n",
      "max_pooling2d_6 (MaxPooling2 (None, 73, 73, 32)        0         \n",
      "_________________________________________________________________\n",
      "conv2d_7 (Conv2D)            (None, 71, 71, 64)        18496     \n",
      "_________________________________________________________________\n",
      "max_pooling2d_7 (MaxPooling2 (None, 35, 35, 64)        0         \n",
      "_________________________________________________________________\n",
      "flatten_1 (Flatten)          (None, 78400)             0         \n",
      "_________________________________________________________________\n",
      "dense_2 (Dense)              (None, 512)               40141312  \n",
      "_________________________________________________________________\n",
      "dense_3 (Dense)              (None, 1)                 513       \n",
      "=================================================================\n",
      "Total params: 40,165,409\n",
      "Trainable params: 40,165,409\n",
      "Non-trainable params: 0\n",
      "_________________________________________________________________\n"
     ]
    }
   ],
   "source": [
    "model = tf.keras.models.Sequential([\n",
    "    tf.keras.layers.Conv2D(16, (3, 3), activation='relu', input_shape=(300, 300, 3)),\n",
…
