…
  {
   "cell_type": "markdown",
   "id": "e217c3fd",
   "metadata": {},
   "source": [
    "### CNN Model 구현"
   ]
  },
  {
   "cell_type": "code",
   "execution_count": 8,
   "id": "73fe520e",
   "metadata": {},
   "outputs": [
    {
     "name": "stdout",
     "output_type": "stream",
     "text": [
      "Model: \"sequential\"\n",
      "_________________________________________________________________\n",
      "Layer (type)                 Output Shape              Param #   \n",
      "=================================================================\n",
      "conv2d (Conv2D)              (None, 148, 148, 16)      448       \n",
      "_________________________________________________________________\n",
      "max_pooling2d (MaxPooling2D) (None, 74, 74, 16)        0         \n",
      "_________________________________________________________________\n",
      "conv2d_1 (Conv2D)            (None, 72, 72, 32)        4640      \n",
      "_________________________________________________________________\n",
      "max_pooling2d_1 (MaxPooling2 (None, 36, 36, 32)        0         \n",
      "_________________________________________________________________\n",
      "conv2d_2 (Conv2D)            (None, 34, 34, 64)        18496     \n",
      "_________________________________________________________________\n",
      "max_pooling2d_2 (MaxPooling2 (None, 17, 17, 64)        0         \n",
      "_________________________________________________________________\n",
      "flatten (Flatten)            (None, 18496)             0         \n",
      "_________________________________________________________________\n",
      "dense (Dense)                (None, 512)               9470464   \n",
      "_________________________________________________________________\n",
      "dense_1 (Dense)              (None, 1)                 513       \n",
      "=================================================================\n",
      "Total params: 9,494,561\n",
      "Trainable params: 9,494,561\n",
      "Non-trainable params: 0\n",
      "_________________________________________________________________\n"
     ]
    }
   ],
   "source": [
    "model = tf.keras.models.Sequential([\n",
    "    # Note the input shape is the desired size of the image 150x150 with 3 bytes color\n",
…
